…
-------------- End ----------------
dataset [AlignedFace2Boudnary2Face] was created
CustomDatasetDataLoader
#training images = 40000
len(dataset):40000
len(gpu_ids): 1 [0]
initialization method [normal]
len(gpu_ids): 1 [0]
initialization method [normal]
initialization method [normal]
---------- Networks initialized -------------
DeconvUnet(
  (model): UnetSkipConnectionBlock(
    (model): Sequential(
      (0): UnetNoSkipConnectionBlock(
        (model): Sequential(
          (0): UnetNoSkipConnectionBlock(
            (model): Sequential(
              (0): ReLU(inplace=True)
              (1): ConvTranspose2d(15, 15, kernel_size=(4, 4), stride=(2, 2), padding=(1, 1), bias=False)
              (2): BatchNorm2d(15, eps=1e-05, momentum=0.1, affine=True, track_running_stats=True)
            )
          )
          (1): ReLU(inplace=True)
          (2): ConvTranspose2d(15, 15, kernel_size=(4, 4), stride=(2, 2), padding=(1, 1))
          (3): Tanh()
        )
      )
      (1): Conv2d(15, 64, kernel_size=(4, 4), stride=(2, 2), padding=(1, 1), bias=False)
      (2): UnetSkipConnectionBlock(
        (model): Sequential(
          (0): LeakyReLU(negative_slope=0.2, inplace=True)
          (1): Conv2d(64, 128, kernel_size=(4, 4), stride=(2, 2), padding=(1, 1), bias=False)
          (2): BatchNorm2d(128, eps=1e-05, momentum=0.1, affine=True, track_running_stats=True)
          (3): UnetSkipConnectionBlock(
            (model): Sequential(
              (0): LeakyReLU(negative_slope=0.2, inplace=True)
              (1): Conv2d(128, 256, kernel_size=(4, 4), stride=(2, 2), padding=(1, 1), bias=False)
              (2): BatchNorm2d(256, eps=1e-05, momentum=0.1, affine=True, track_running_stats=True)
              (3): UnetSkipConnectionBlock(
                (model): Sequential(
                  (0): LeakyReLU(negative_slope=0.2, inplace=True)
                  (1): Conv2d(256, 512, kernel_size=(4, 4), stride=(2, 2), padding=(1, 1), bias=False)
                  (2): BatchNorm2d(512, eps=1e-05, momentum=0.1, affine=True, track_running_stats=True)
                  (3): UnetSkipConnectionBlock(
                    (model): Sequential(
                      (0): LeakyReLU(negative_slope=0.2, inplace=True)
                      (1): Conv2d(512, 512, kernel_size=(4, 4), stride=(2, 2), padding=(1, 1), bias=False)
                      (2): BatchNorm2d(512, eps=1e-05, momentum=0.1, affine=True, track_running_stats=True)
                      (3): UnetSkipConnectionBlock(
                        (model): Sequential(
                          (0): LeakyReLU(negative_slope=0.2, inplace=True)
                          (1): Conv2d(512, 512, kernel_size=(4, 4), stride=(2, 2), padding=(1, 1), bias=False)
                          (2): BatchNorm2d(512, eps=1e-05, momentum=0.1, affine=True, track_running_stats=True)
                          (3): UnetSkipConnectionBlock(
                            (model): Sequential(
                              (0): LeakyReLU(negative_slope=0.2, inplace=True)
                              (1): Conv2d(512, 512, kernel_size=(4, 4), stride=(2, 2), padding=(1, 1), bias=False)
                              (2): BatchNorm2d(512, eps=1e-05, momentum=0.1, affine=True, track_running_stats=True)
                              (3): UnetSkipConnectionBlock(
                                (model): Sequential(
                                  (0): LeakyReLU(negative_slope=0.2, inplace=True)
                                  (1): Conv2d(512, 512, kernel_size=(4, 4), stride=(2, 2), padding=(1, 1), bias=False)
                                  (2): ReLU(inplace=True)
                                  (3): ConvTranspose2d(512, 512, kernel_size=(4, 4), stride=(2, 2), padding=(1, 1), bias=False)
                                  (4): BatchNorm2d(512, eps=1e-05, momentum=0.1, affine=True, track_running_stats=True)
                                )
                              )
                              (4): ReLU(inplace=True)
                              (5): ConvTranspose2d(1024, 512, kernel_size=(4, 4), stride=(2, 2), padding=(1, 1), bias=False)
                              (6): BatchNorm2d(512, eps=1e-05, momentum=0.1, affine=True, track_running_stats=True)
                              (7): Dropout(p=0.5, inplace=False)
                            )
                          )
                          (4): ReLU(inplace=True)
                          (5): ConvTranspose2d(1024, 512, kernel_size=(4, 4), stride=(2, 2), padding=(1, 1), bias=False)
                          (6): BatchNorm2d(512, eps=1e-05, momentum=0.1, affine=True, track_running_stats=True)
                          (7): Dropout(p=0.5, inplace=False)
                        )
                      )
                      (4): ReLU(inplace=True)
                      (5): ConvTranspose2d(1024, 512, kernel_size=(4, 4), stride=(2, 2), padding=(1, 1), bias=False)
                      (6): BatchNorm2d(512, eps=1e-05, momentum=0.1, affine=True, track_running_stats=True)
                      (7): Dropout(p=0.5, inplace=False)
                    )
                  )
                  (4): ReLU(inplace=True)
                  (5): ConvTranspose2d(1024, 256, kernel_size=(4, 4), stride=(2, 2), padding=(1, 1), bias=False)
                  (6): BatchNorm2d(256, eps=1e-05, momentum=0.1, affine=True, track_running_stats=True)
                )
              )
              (4): ReLU(inplace=True)
              (5): ConvTranspose2d(512, 128, kernel_size=(4, 4), stride=(2, 2), padding=(1, 1), bias=False)
              (6): BatchNorm2d(128, eps=1e-05, momentum=0.1, affine=True, track_running_stats=True)
            )
          )
          (4): ReLU(inplace=True)
          (5): ConvTranspose2d(256, 64, kernel_size=(4, 4), stride=(2, 2), padding=(1, 1), bias=False)
          (6): BatchNorm2d(64, eps=1e-05, momentum=0.1, affine=True, track_running_stats=True)
        )
      )
      (3): ReLU(inplace=True)
      (4): ConvTranspose2d(128, 3, kernel_size=(4, 4), stride=(2, 2), padding=(1, 1))
      (5): Tanh()
    )
  )
)
Total number of parameters: 54433488
StackHourglassNet(
  (model): Sequential(
    (0): HourglassNet(
      (conv1): Conv2d(3, 64, kernel_size=(7, 7), stride=(2, 2), padding=(3, 3))
      (bn1): BatchNorm2d(64, eps=1e-05, momentum=0.1, affine=True, track_running_stats=True)
      (relu): ReLU(inplace=True)
      (layer1): Sequential(
        (0): Bottleneck(
          (bn1): BatchNorm2d(64, eps=1e-05, momentum=0.1, affine=True, track_running_stats=True)
          (conv1): Conv2d(64, 64, kernel_size=(1, 1), stride=(1, 1))
          (bn2): BatchNorm2d(64, eps=1e-05, momentum=0.1, affine=True, track_running_stats=True)
          (conv2): Conv2d(64, 64, kernel_size=(3, 3), stride=(1, 1), padding=(1, 1))
          (bn3): BatchNorm2d(64, eps=1e-05, momentum=0.1, affine=True, track_running_stats=True)
          (conv3): Conv2d(64, 128, kernel_size=(1, 1), stride=(1, 1))
          (relu): ReLU(inplace=True)
          (downsample): Sequential(
            (0): Conv2d(64, 128, kernel_size=(1, 1), stride=(1, 1))
          )
        )
      )
      (layer2): Sequential(
        (0): Bottleneck(
          (bn1): BatchNorm2d(128, eps=1e-05, momentum=0.1, affine=True, track_running_stats=True)
          (conv1): Conv2d(128, 128, kernel_size=(1, 1), stride=(1, 1))
          (bn2): BatchNorm2d(128, eps=1e-05, momentum=0.1, affine=True, track_running_stats=True)
          (conv2): Conv2d(128, 128, kernel_size=(3, 3), stride=(1, 1), padding=(1, 1))
          (bn3): BatchNorm2d(128, eps=1e-05, momentum=0.1, affine=True, track_running_stats=True)
          (conv3): Conv2d(128, 256, kernel_size=(1, 1), stride=(1, 1))
          (relu): ReLU(inplace=True)
          (downsample): Sequential(
            (0): Conv2d(128, 256, kernel_size=(1, 1), stride=(1, 1))
          )
        )
      )
      (layer3): Sequential(
        (0): Bottleneck(
          (bn1): BatchNorm2d(256, eps=1e-05, momentum=0.1, affine=True, track_running_stats=True)
          (conv1): Conv2d(256, 128, kernel_size=(1, 1), stride=(1, 1))
          (bn2): BatchNorm2d(128, eps=1e-05, momentum=0.1, affine=True, track_running_stats=True)
          (conv2): Conv2d(128, 128, kernel_size=(3, 3), stride=(1, 1), padding=(1, 1))
          (bn3): BatchNorm2d(128, eps=1e-05, momentum=0.1, affine=True, track_running_stats=True)
          (conv3): Conv2d(128, 256, kernel_size=(1, 1), stride=(1, 1))
          (relu): ReLU(inplace=True)
        )
      )
      (maxpool): MaxPool2d(kernel_size=2, stride=2, padding=0, dilation=1, ceil_mode=False)
      (hg): ModuleList(
        (0): Hourglass(
          (upsample): Upsample(scale_factor=2.0, mode=nearest)
          (hg): ModuleList(
            (0): ModuleList(
              (0): Sequential(
                (0): Bottleneck(
                  (bn1): BatchNorm2d(256, eps=1e-05, momentum=0.1, affine=True, track_running_stats=True)
                  (conv1): Conv2d(256, 128, kernel_size=(1, 1), stride=(1, 1))
                  (bn2): BatchNorm2d(128, eps=1e-05, momentum=0.1, affine=True, track_running_stats=True)
                  (conv2): Conv2d(128, 128, kernel_size=(3, 3), stride=(1, 1), padding=(1, 1))
                  (bn3): BatchNorm2d(128, eps=1e-05, momentum=0.1, affine=True, track_running_stats=True)
                  (conv3): Conv2d(128, 256, kernel_size=(1, 1), stride=(1, 1))
                  (relu): ReLU(inplace=True)
                )
              )
              (1): Sequential(
                (0): Bottleneck(
                  (bn1): BatchNorm2d(256, eps=1e-05, momentum=0.1, affine=True, track_running_stats=True)
                  (conv1): Conv2d(256, 128, kernel_size=(1, 1), stride=(1, 1))
                  (bn2): BatchNorm2d(128, eps=1e-05, momentum=0.1, affine=True, track_running_stats=True)
                  (conv2): Conv2d(128, 128, kernel_size=(3, 3), stride=(1, 1), padding=(1, 1))
                  (bn3): BatchNorm2d(128, eps=1e-05, momentum=0.1, affine=True, track_running_stats=True)
                  (conv3): Conv2d(128, 256, kernel_size=(1, 1), stride=(1, 1))
                  (relu): ReLU(inplace=True)
                )
              )
              (2): Sequential(
                (0): Bottleneck(
                  (bn1): BatchNorm2d(256, eps=1e-05, momentum=0.1, affine=True, track_running_stats=True)
                  (conv1): Conv2d(256, 128, kernel_size=(1, 1), stride=(1, 1))
                  (bn2): BatchNorm2d(128, eps=1e-05, momentum=0.1, affine=True, track_running_stats=True)
                  (conv2): Conv2d(128, 128, kernel_size=(3, 3), stride=(1, 1), padding=(1, 1))
                  (bn3): BatchNorm2d(128, eps=1e-05, momentum=0.1, affine=True, track_running_stats=True)
                  (conv3): Conv2d(128, 256, kernel_size=(1, 1), stride=(1, 1))
                  (relu): ReLU(inplace=True)
                )
              )
              (3): Sequential(
                (0): Bottleneck(
                  (bn1): BatchNorm2d(256, eps=1e-05, momentum=0.1, affine=True, track_running_stats=True)
                  (conv1): Conv2d(256, 128, kernel_size=(1, 1), stride=(1, 1))
                  (bn2): BatchNorm2d(128, eps=1e-05, momentum=0.1, affine=True, track_running_stats=True)
                  (conv2): Conv2d(128, 128, kernel_size=(3, 3), stride=(1, 1), padding=(1, 1))
                  (bn3): BatchNorm2d(128, eps=1e-05, momentum=0.1, affine=True, track_running_stats=True)
                  (conv3): Conv2d(128, 256, kernel_size=(1, 1), stride=(1, 1))
                  (relu): ReLU(inplace=True)
                )
              )
            )
            (1): ModuleList(
              (0): Sequential(
                (0): Bottleneck(
                  (bn1): BatchNorm2d(256, eps=1e-05, momentum=0.1, affine=True, track_running_stats=True)
                  (conv1): Conv2d(256, 128, kernel_size=(1, 1), stride=(1, 1))
                  (bn2): BatchNorm2d(128, eps=1e-05, momentum=0.1, affine=True, track_running_stats=True)
                  (conv2): Conv2d(128, 128, kernel_size=(3, 3), stride=(1, 1), padding=(1, 1))
                  (bn3): BatchNorm2d(128, eps=1e-05, momentum=0.1, affine=True, track_running_stats=True)
                  (conv3): Conv2d(128, 256, kernel_size=(1, 1), stride=(1, 1))
                  (relu): ReLU(inplace=True)
                )
              )
              (1): Sequential(
                (0): Bottleneck(
                  (bn1): BatchNorm2d(256, eps=1e-05, momentum=0.1, affine=True, track_running_stats=True)
                  (conv1): Conv2d(256, 128, kernel_size=(1, 1), stride=(1, 1))
                  (bn2): BatchNorm2d(128, eps=1e-05, momentum=0.1, affine=True, track_running_stats=True)
                  (conv2): Conv2d(128, 128, kernel_size=(3, 3), stride=(1, 1), padding=(1, 1))
                  (bn3): BatchNorm2d(128, eps=1e-05, momentum=0.1, affine=True, track_running_stats=True)
                  (conv3): Conv2d(128, 256, kernel_size=(1, 1), stride=(1, 1))
                  (relu): ReLU(inplace=True)
                )
              )
              (2): Sequential(
                (0): Bottleneck(
                  (bn1): BatchNorm2d(256, eps=1e-05, momentum=0.1, affine=True, track_running_stats=True)
                  (conv1): Conv2d(256, 128, kernel_size=(1, 1), stride=(1, 1))
                  (bn2): BatchNorm2d(128, eps=1e-05, momentum=0.1, affine=True, track_running_stats=True)
                  (conv2): Conv2d(128, 128, kernel_size=(3, 3), stride=(1, 1), padding=(1, 1))
                  (bn3): BatchNorm2d(128, eps=1e-05, momentum=0.1, affine=True, track_running_stats=True)
                  (conv3): Conv2d(128, 256, kernel_size=(1, 1), stride=(1, 1))
                  (relu): ReLU(inplace=True)
                )
              )
            )
            (2): ModuleList(
              (0): Sequential(
                (0): Bottleneck(
                  (bn1): BatchNorm2d(256, eps=1e-05, momentum=0.1, affine=True, track_running_stats=True)
                  (conv1): Conv2d(256, 128, kernel_size=(1, 1), stride=(1, 1))
                  (bn2): BatchNorm2d(128, eps=1e-05, momentum=0.1, affine=True, track_running_stats=True)
                  (conv2): Conv2d(128, 128, kernel_size=(3, 3), stride=(1, 1), padding=(1, 1))
                  (bn3): BatchNorm2d(128, eps=1e-05, momentum=0.1, affine=True, track_running_stats=True)
                  (conv3): Conv2d(128, 256, kernel_size=(1, 1), stride=(1, 1))
                  (relu): ReLU(inplace=True)
                )
              )
              (1): Sequential(
                (0): Bottleneck(
                  (bn1): BatchNorm2d(256, eps=1e-05, momentum=0.1, affine=True, track_running_stats=True)
                  (conv1): Conv2d(256, 128, kernel_size=(1, 1), stride=(1, 1))
                  (bn2): BatchNorm2d(128, eps=1e-05, momentum=0.1, affine=True, track_running_stats=True)
                  (conv2): Conv2d(128, 128, kernel_size=(3, 3), stride=(1, 1), padding=(1, 1))
                  (bn3): BatchNorm2d(128, eps=1e-05, momentum=0.1, affine=True, track_running_stats=True)
                  (conv3): Conv2d(128, 256, kernel_size=(1, 1), stride=(1, 1))
                  (relu): ReLU(inplace=True)
                )
              )
              (2): Sequential(
                (0): Bottleneck(
                  (bn1): BatchNorm2d(256, eps=1e-05, momentum=0.1, affine=True, track_running_stats=True)
                  (conv1): Conv2d(256, 128, kernel_size=(1, 1), stride=(1, 1))
                  (bn2): BatchNorm2d(128, eps=1e-05, momentum=0.1, affine=True, track_running_stats=True)
                  (conv2): Conv2d(128, 128, kernel_size=(3, 3), stride=(1, 1), padding=(1, 1))
                  (bn3): BatchNorm2d(128, eps=1e-05, momentum=0.1, affine=True, track_running_stats=True)
                  (conv3): Conv2d(128, 256, kernel_size=(1, 1), stride=(1, 1))
                  (relu): ReLU(inplace=True)
                )
              )
            )
            (3): ModuleList(
              (0): Sequential(
                (0): Bottleneck(
                  (bn1): BatchNorm2d(256, eps=1e-05, momentum=0.1, affine=True, track_running_stats=True)
                  (conv1): Conv2d(256, 128, kernel_size=(1, 1), stride=(1, 1))
                  (bn2): BatchNorm2d(128, eps=1e-05, momentum=0.1, affine=True, track_running_stats=True)
                  (conv2): Conv2d(128, 128, kernel_size=(3, 3), stride=(1, 1), padding=(1, 1))
                  (bn3): BatchNorm2d(128, eps=1e-05, momentum=0.1, affine=True, track_running_stats=True)
                  (conv3): Conv2d(128, 256, kernel_size=(1, 1), stride=(1, 1))
                  (relu): ReLU(inplace=True)
                )
              )
              (1): Sequential(
                (0): Bottleneck(
                  (bn1): BatchNorm2d(256, eps=1e-05, momentum=0.1, affine=True, track_running_stats=True)
                  (conv1): Conv2d(256, 128, kernel_size=(1, 1), stride=(1, 1))
                  (bn2): BatchNorm2d(128, eps=1e-05, momentum=0.1, affine=True, track_running_stats=True)
                  (conv2): Conv2d(128, 128, kernel_size=(3, 3), stride=(1, 1), padding=(1, 1))
                  (bn3): BatchNorm2d(128, eps=1e-05, momentum=0.1, affine=True, track_running_stats=True)
                  (conv3): Conv2d(128, 256, kernel_size=(1, 1), stride=(1, 1))
                  (relu): ReLU(inplace=True)
                )
              )
              (2): Sequential(
                (0): Bottleneck(
                  (bn1): BatchNorm2d(256, eps=1e-05, momentum=0.1, affine=True, track_running_stats=True)
                  (conv1): Conv2d(256, 128, kernel_size=(1, 1), stride=(1, 1))
                  (bn2): BatchNorm2d(128, eps=1e-05, momentum=0.1, affine=True, track_running_stats=True)
                  (conv2): Conv2d(128, 128, kernel_size=(3, 3), stride=(1, 1), padding=(1, 1))
                  (bn3): BatchNorm2d(128, eps=1e-05, momentum=0.1, affine=True, track_running_stats=True)
                  (conv3): Conv2d(128, 256, kernel_size=(1, 1), stride=(1, 1))
                  (relu): ReLU(inplace=True)
                )
              )
            )
          )
        )
        (1): Hourglass(
          (upsample): Upsample(scale_factor=2.0, mode=nearest)
          (hg): ModuleList(
            (0): ModuleList(
              (0): Sequential(
                (0): Bottleneck(
                  (bn1): BatchNorm2d(256, eps=1e-05, momentum=0.1, affine=True, track_running_stats=True)
                  (conv1): Conv2d(256, 128, kernel_size=(1, 1), stride=(1, 1))
                  (bn2): BatchNorm2d(128, eps=1e-05, momentum=0.1, affine=True, track_running_stats=True)
                  (conv2): Conv2d(128, 128, kernel_size=(3, 3), stride=(1, 1), padding=(1, 1))
                  (bn3): BatchNorm2d(128, eps=1e-05, momentum=0.1, affine=True, track_running_stats=True)
                  (conv3): Conv2d(128, 256, kernel_size=(1, 1), stride=(1, 1))
                  (relu): ReLU(inplace=True)
                )
              )
              (1): Sequential(
                (0): Bottleneck(
                  (bn1): BatchNorm2d(256, eps=1e-05, momentum=0.1, affine=True, track_running_stats=True)
                  (conv1): Conv2d(256, 128, kernel_size=(1, 1), stride=(1, 1))
                  (bn2): BatchNorm2d(128, eps=1e-05, momentum=0.1, affine=True, track_running_stats=True)
                  (conv2): Conv2d(128, 128, kernel_size=(3, 3), stride=(1, 1), padding=(1, 1))
                  (bn3): BatchNorm2d(128, eps=1e-05, momentum=0.1, affine=True, track_running_stats=True)
                  (conv3): Conv2d(128, 256, kernel_size=(1, 1), stride=(1, 1))
                  (relu): ReLU(inplace=True)
                )
              )
              (2): Sequential(
                (0): Bottleneck(
                  (bn1): BatchNorm2d(256, eps=1e-05, momentum=0.1, affine=True, track_running_stats=True)
                  (conv1): Conv2d(256, 128, kernel_size=(1, 1), stride=(1, 1))
                  (bn2): BatchNorm2d(128, eps=1e-05, momentum=0.1, affine=True, track_running_stats=True)
                  (conv2): Conv2d(128, 128, kernel_size=(3, 3), stride=(1, 1), padding=(1, 1))
                  (bn3): BatchNorm2d(128, eps=1e-05, momentum=0.1, affine=True, track_running_stats=True)
                  (conv3): Conv2d(128, 256, kernel_size=(1, 1), stride=(1, 1))
                  (relu): ReLU(inplace=True)
                )
              )
              (3): Sequential(
                (0): Bottleneck(
                  (bn1): BatchNorm2d(256, eps=1e-05, momentum=0.1, affine=True, track_running_stats=True)
                  (conv1): Conv2d(256, 128, kernel_size=(1, 1), stride=(1, 1))
                  (bn2): BatchNorm2d(128, eps=1e-05, momentum=0.1, affine=True, track_running_stats=True)
                  (conv2): Conv2d(128, 128, kernel_size=(3, 3), stride=(1, 1), padding=(1, 1))
                  (bn3): BatchNorm2d(128, eps=1e-05, momentum=0.1, affine=True, track_running_stats=True)
                  (conv3): Conv2d(128, 256, kernel_size=(1, 1), stride=(1, 1))
                  (relu): ReLU(inplace=True)
                )
              )
            )
            (1): ModuleList(
              (0): Sequential(
                (0): Bottleneck(
                  (bn1): BatchNorm2d(256, eps=1e-05, momentum=0.1, affine=True, track_running_stats=True)
                  (conv1): Conv2d(256, 128, kernel_size=(1, 1), stride=(1, 1))
                  (bn2): BatchNorm2d(128, eps=1e-05, momentum=0.1, affine=True, track_running_stats=True)
                  (conv2): Conv2d(128, 128, kernel_size=(3, 3), stride=(1, 1), padding=(1, 1))
                  (bn3): BatchNorm2d(128, eps=1e-05, momentum=0.1, affine=True, track_running_stats=True)
                  (conv3): Conv2d(128, 256, kernel_size=(1, 1), stride=(1, 1))
                  (relu): ReLU(inplace=True)
                )
              )
              (1): Sequential(
                (0): Bottleneck(
                  (bn1): BatchNorm2d(256, eps=1e-05, momentum=0.1, affine=True, track_running_stats=True)
                  (conv1): Conv2d(256, 128, kernel_size=(1, 1), stride=(1, 1))
                  (bn2): BatchNorm2d(128, eps=1e-05, momentum=0.1, affine=True, track_running_stats=True)
                  (conv2): Conv2d(128, 128, kernel_size=(3, 3), stride=(1, 1), padding=(1, 1))
                  (bn3): BatchNorm2d(128, eps=1e-05, momentum=0.1, affine=True, track_running_stats=True)
                  (conv3): Conv2d(128, 256, kernel_size=(1, 1), stride=(1, 1))
                  (relu): ReLU(inplace=True)
                )
              )
              (2): Sequential(
                (0): Bottleneck(
                  (bn1): BatchNorm2d(256, eps=1e-05, momentum=0.1, affine=True, track_running_stats=True)
                  (conv1): Conv2d(256, 128, kernel_size=(1, 1), stride=(1, 1))
                  (bn2): BatchNorm2d(128, eps=1e-05, momentum=0.1, affine=True, track_running_stats=True)
                  (conv2): Conv2d(128, 128, kernel_size=(3, 3), stride=(1, 1), padding=(1, 1))
                  (bn3): BatchNorm2d(128, eps=1e-05, momentum=0.1, affine=True, track_running_stats=True)
                  (conv3): Conv2d(128, 256, kernel_size=(1, 1), stride=(1, 1))
                  (relu): ReLU(inplace=True)
                )
              )
            )
            (2): ModuleList(
              (0): Sequential(
                (0): Bottleneck(
                  (bn1): BatchNorm2d(256, eps=1e-05, momentum=0.1, affine=True, track_running_stats=True)
                  (conv1): Conv2d(256, 128, kernel_size=(1, 1), stride=(1, 1))
                  (bn2): BatchNorm2d(128, eps=1e-05, momentum=0.1, affine=True, track_running_stats=True)
                  (conv2): Conv2d(128, 128, kernel_size=(3, 3), stride=(1, 1), padding=(1, 1))
                  (bn3): BatchNorm2d(128, eps=1e-05, momentum=0.1, affine=True, track_running_stats=True)
                  (conv3): Conv2d(128, 256, kernel_size=(1, 1), stride=(1, 1))
                  (relu): ReLU(inplace=True)
                )
              )
              (1): Sequential(
                (0): Bottleneck(
                  (bn1): BatchNorm2d(256, eps=1e-05, momentum=0.1, affine=True, track_running_stats=True)
                  (conv1): Conv2d(256, 128, kernel_size=(1, 1), stride=(1, 1))
                  (bn2): BatchNorm2d(128, eps=1e-05, momentum=0.1, affine=True, track_running_stats=True)
                  (conv2): Conv2d(128, 128, kernel_size=(3, 3), stride=(1, 1), padding=(1, 1))
                  (bn3): BatchNorm2d(128, eps=1e-05, momentum=0.1, affine=True, track_running_stats=True)
                  (conv3): Conv2d(128, 256, kernel_size=(1, 1), stride=(1, 1))
                  (relu): ReLU(inplace=True)
                )
              )
              (2): Sequential(
                (0): Bottleneck(
                  (bn1): BatchNorm2d(256, eps=1e-05, momentum=0.1, affine=True, track_running_stats=True)
                  (conv1): Conv2d(256, 128, kernel_size=(1, 1), stride=(1, 1))
                  (bn2): BatchNorm2d(128, eps=1e-05, momentum=0.1, affine=True, track_running_stats=True)
                  (conv2): Conv2d(128, 128, kernel_size=(3, 3), stride=(1, 1), padding=(1, 1))
                  (bn3): BatchNorm2d(128, eps=1e-05, momentum=0.1, affine=True, track_running_stats=True)
                  (conv3): Conv2d(128, 256, kernel_size=(1, 1), stride=(1, 1))
                  (relu): ReLU(inplace=True)
                )
              )
            )
            (3): ModuleList(
              (0): Sequential(
                (0): Bottleneck(
                  (bn1): BatchNorm2d(256, eps=1e-05, momentum=0.1, affine=True, track_running_stats=True)
                  (conv1): Conv2d(256, 128, kernel_size=(1, 1), stride=(1, 1))
                  (bn2): BatchNorm2d(128, eps=1e-05, momentum=0.1, affine=True, track_running_stats=True)
                  (conv2): Conv2d(128, 128, kernel_size=(3, 3), stride=(1, 1), padding=(1, 1))
                  (bn3): BatchNorm2d(128, eps=1e-05, momentum=0.1, affine=True, track_running_stats=True)
                  (conv3): Conv2d(128, 256, kernel_size=(1, 1), stride=(1, 1))
                  (relu): ReLU(inplace=True)
                )
              )
              (1): Sequential(
                (0): Bottleneck(
                  (bn1): BatchNorm2d(256, eps=1e-05, momentum=0.1, affine=True, track_running_stats=True)
                  (conv1): Conv2d(256, 128, kernel_size=(1, 1), stride=(1, 1))
                  (bn2): BatchNorm2d(128, eps=1e-05, momentum=0.1, affine=True, track_running_stats=True)
                  (conv2): Conv2d(128, 128, kernel_size=(3, 3), stride=(1, 1), padding=(1, 1))
                  (bn3): BatchNorm2d(128, eps=1e-05, momentum=0.1, affine=True, track_running_stats=True)
                  (conv3): Conv2d(128, 256, kernel_size=(1, 1), stride=(1, 1))
                  (relu): ReLU(inplace=True)
                )
              )
              (2): Sequential(
                (0): Bottleneck(
                  (bn1): BatchNorm2d(256, eps=1e-05, momentum=0.1, affine=True, track_running_stats=True)
                  (conv1): Conv2d(256, 128, kernel_size=(1, 1), stride=(1, 1))
                  (bn2): BatchNorm2d(128, eps=1e-05, momentum=0.1, affine=True, track_running_stats=True)
                  (conv2): Conv2d(128, 128, kernel_size=(3, 3), stride=(1, 1), padding=(1, 1))
                  (bn3): BatchNorm2d(128, eps=1e-05, momentum=0.1, affine=True, track_running_stats=True)
                  (conv3): Conv2d(128, 256, kernel_size=(1, 1), stride=(1, 1))
                  (relu): ReLU(inplace=True)
                )
              )
            )
          )
        )
      )
      (res): ModuleList(
        (0): Sequential(
          (0): Bottleneck(
            (bn1): BatchNorm2d(256, eps=1e-05, momentum=0.1, affine=True, track_running_stats=True)
            (conv1): Conv2d(256, 128, kernel_size=(1, 1), stride=(1, 1))
            (bn2): BatchNorm2d(128, eps=1e-05, momentum=0.1, affine=True, track_running_stats=True)
            (conv2): Conv2d(128, 128, kernel_size=(3, 3), stride=(1, 1), padding=(1, 1))
            (bn3): BatchNorm2d(128, eps=1e-05, momentum=0.1, affine=True, track_running_stats=True)
            (conv3): Conv2d(128, 256, kernel_size=(1, 1), stride=(1, 1))
            (relu): ReLU(inplace=True)
          )
        )
        (1): Sequential(
          (0): Bottleneck(
            (bn1): BatchNorm2d(256, eps=1e-05, momentum=0.1, affine=True, track_running_stats=True)
            (conv1): Conv2d(256, 128, kernel_size=(1, 1), stride=(1, 1))
            (bn2): BatchNorm2d(128, eps=1e-05, momentum=0.1, affine=True, track_running_stats=True)
            (conv2): Conv2d(128, 128, kernel_size=(3, 3), stride=(1, 1), padding=(1, 1))
            (bn3): BatchNorm2d(128, eps=1e-05, momentum=0.1, affine=True, track_running_stats=True)
            (conv3): Conv2d(128, 256, kernel_size=(1, 1), stride=(1, 1))
            (relu): ReLU(inplace=True)
          )
        )
      )
      (fc): ModuleList(
        (0): Sequential(
          (0): Conv2d(256, 256, kernel_size=(1, 1), stride=(1, 1))
          (1): BatchNorm2d(256, eps=1e-05, momentum=0.1, affine=True, track_running_stats=True)
          (2): ReLU(inplace=True)
        )
        (1): Sequential(
          (0): Conv2d(256, 256, kernel_size=(1, 1), stride=(1, 1))
          (1): BatchNorm2d(256, eps=1e-05, momentum=0.1, affine=True, track_running_stats=True)
          (2): ReLU(inplace=True)
        )
      )
      (score): ModuleList(
        (0): Conv2d(256, 15, kernel_size=(1, 1), stride=(1, 1))
        (1): Conv2d(256, 15, kernel_size=(1, 1), stride=(1, 1))
      )
      (fc_): ModuleList(
        (0): Conv2d(256, 256, kernel_size=(1, 1), stride=(1, 1))
      )
      (score_): ModuleList(
        (0): Conv2d(15, 256, kernel_size=(1, 1), stride=(1, 1))
      )
    )
  )
)
Total number of parameters: 6730142
NLayerDiscriminator(
  (model): Sequential(
    (0): Conv2d(18, 64, kernel_size=(4, 4), stride=(2, 2), padding=(1, 1))
    (1): LeakyReLU(negative_slope=0.2, inplace=True)
    (2): Conv2d(64, 128, kernel_size=(4, 4), stride=(2, 2), padding=(1, 1), bias=False)
    (3): BatchNorm2d(128, eps=1e-05, momentum=0.1, affine=True, track_running_stats=True)
    (4): LeakyReLU(negative_slope=0.2, inplace=True)
    (5): Conv2d(128, 256, kernel_size=(4, 4), stride=(2, 2), padding=(1, 1), bias=False)
    (6): BatchNorm2d(256, eps=1e-05, momentum=0.1, affine=True, track_running_stats=True)
    (7): LeakyReLU(negative_slope=0.2, inplace=True)
    (8): Conv2d(256, 512, kernel_size=(4, 4), stride=(1, 1), padding=(1, 1), bias=False)
    (9): BatchNorm2d(512, eps=1e-05, momentum=0.1, affine=True, track_running_stats=True)
    (10): LeakyReLU(negative_slope=0.2, inplace=True)
    (11): Conv2d(512, 1, kernel_size=(4, 4), stride=(1, 1), padding=(1, 1))
    (12): Sigmoid()
  )
)
Total number of parameters: 2780993
-----------------------------------------------
2022-11-03 16:26:11] create web directory ./checkpoints/Decoder_2022-11-03_16-25-17/web...
2022-11-03 16:26:48] (epoch: 1, iters: 400, time: 0.063) G_GAN: 2.494819 G_Pixel: 39.839142 G_Feature: 122.259995 D_real: 0.096098 D_fake: 0.106709 
…
